model.pth (torch, 213373 bytes, 26 tensors)

weight f4 [12, 3, 5, 5]
000000 43 df 50 be 11 8a a6 3c c1 0d 66 bd 6d 60 25 be
       -0.20397668 0.020329507 -0.05616546 -0.16150065
000010 f8 7e 0c be 9b 89 16 3d bd 85 aa 3d d1 5f 61 bc
       -0.1372031 0.036752325 0.0832629 -0.013755755
000020 d5 64 31 bd ed f6 db 3d 87 ae 81 bd 47 6e b8 3c
       -0.04330905 0.10740457 -0.063321166 0.022513522
000030 34 ca 86 bd d5 8c 59 3e 9b 59 91 3d 91 55 04 3e
       -0.06581536 0.2124513 0.07097169 0.12923266
000040 49 98 3f 3e 98 f7 06 3e b4 a2 93 3e 98 ed fa 3b
       0.18710436 0.13180387 0.2883507 0.007657718
000050 7b c1 8e 3c d4 6a dd 3d 24 52 af 3d 34 be 61 3d
       0.017426243 0.108113915 0.08560589 0.055113032
000060 2e 3a 67 bd 10 af 74 3c 82 61 39 3d 13 bd f1 3d
       -0.05645197 0.014934316 0.045259006 0.11803641
000070 e0 af 07 be e4 47 57 bd a2 29 55 3c b3 5f a9 3c
       -0.13250685 -0.052558795 0.013010414 0.020675516
000080 1e 9a b3 3c 95 2e 66 bd eb eb 9c bd 02 d0 16 be
       0.021924075 -0.056196768 -0.07662185 -0.14727786
000090 4c e7 ba bd 69 10 ff bd c9 86 a4 bc 30 ac 17 be
       -0.09126148 -0.12454302 -0.020083802 -0.14811778
0000a0 8d a9 d8 3d e9 25 04 be d4 6a 71 bd fd ec 33 3d
       0.10579214 -0.12905087 -0.05893977 0.04392718
0000b0 1f 4e 82 3d af 79 24 be e4 3e 2a be d6 7c d1 bd
       0.06362557 -0.16062044 -0.16625553 -0.10228889
0000c0 8c 0c 94 bd c1 af f7 bc 01 2c 14 3e 93 3c 2c 3e
       -0.072289556 -0.030235173 0.14469911 0.16819982
0000d0 25 c0 f7 3d 51 85 dd 3d aa 59 7d 3d 98 a8 0d bd
       0.120971955 0.10816444 0.06185309 -0.03458461
0000e0 bf 56 2f 3e fc c5 e2 3c e1 30 96 3d b5 e0 0e 3d
       0.17122935 0.027682297 0.07333542 0.034882266
0000f0 eb be a5 bd 6f 96 e3 bd 59 5a 2c be 94 68 b6 3d
       -0.08093055 -0.11112677 -0.1683134 0.089066654
000100 01 4a 2a 3d 60 45 23 3e 6f 69 aa bc 1b 58 15 be
       0.041574482 0.15944433 -0.020802228 -0.14584391
000110 78 72 a2 bc bf 25 8f bd 09 7a cb 3c 3c 24 43 bd
       -0.019829974 -0.06989621 0.024838464 -0.047641978
000120 59 8b 2f be 5e e1 f8 3d 83 2e ae bd d9 01 9e bd
       -0.17143 0.121523604 -0.08504965 -0.07715196
000130 a8 b0 98 bc 77 19 02 be 14 47 df 3d 3d 8a 04 bc
       -0.018638924 -0.12705027 0.10902229 -0.008089599
000140 d7 63 8b 3d aa 0f 49 be d4 f7 14 be e0 01 ac 3d
       0.06806152 -0.19634882 -0.14547664 0.08398795
000150 7b 83 86 3d 68 5d ce 3c da 75 2f 3e 6a 3e b5 3d
       0.06568047 0.025191024 0.171348 0.08849795
000160 7e 24 c2 3c 9e ca 2c bb 64 43 89 bb 99 39 49 3e
       0.023699041 -0.0026365886 -0.004188942 0.19650878
000170 f5 e0 90 bd 63 8f 4e bc 61 27 25 bc 95 61 88 bd
       -0.07074157 -0.012607428 -0.010080189 -0.06659237
000180 9a e8 7d 3d d5 46 bc bd 2c 75 44 3c 92 3e ef bc
       0.061989404 -0.09193198 0.011990827 -0.02920464
000190 7c 9b 43 3d 4a 2f 57 bd 28 f7 6d bd aa 16 37 3d
       0.047755703 -0.052535333 -0.058097035 0.04469935
0001a0 78 35 6b 3d db ed 93 3d 57 23 37 be 33 01 cf bd
       0.05742404 0.07223102 -0.17884575 -0.101076506
0001b0 3f 53 8a 3d 0e ff 84 3d 2e 21 db 3d b2 d3 3e 3e
       0.06754159 0.0649396 0.10699688 0.18635443
0001c0 96 05 9f bc 4a aa e2 3c ea 02 f4 bd aa 64 d9 bd
       -0.019411843 0.02766909 -0.11914618 -0.10614903
0001d0 55 13 05 3e 77 21 22 be c2 12 d7 bb 40 fe 4d be
       0.12995656 -0.15833078 -0.0065635154 -0.2011652
0001e0 51 58 59 bd 9e 0e 08 3e a0 d6 cd bd 73 a7 d4 3c
       -0.05306274 0.13286826 -0.10050702 0.025958752
0001f0 64 40 c0 bd da 54 8c 3c da 91 aa bd e6 f5 00 be
       -0.093872815 0.017130304 -0.083286 -0.12593803
000200 af bb 00 be ca 19 7d bd 25 f3 a1 bc 96 5b df 3c
       -0.12571596 -0.061792172 -0.01976926 0.027265351
000210 79 a9 09 be 59 3f 9a 3d 00 ca 7a 3d a4 b7 10 3e
       -0.13443555 0.07531614 0.0612278 0.14132553
000220 aa bb a6 3d c1 63 9e 3c 70 d0 09 3e 35 54 41 bc
       0.08141263 0.019334676 0.13458419 -0.011799862
000230 ef 66 24 3e 91 32 a0 3e 19 88 93 3d 97 18 ad bd
       0.16054891 0.3128858 0.07203693 -0.08451956
000240 fb ea 9c bd 50 a0 cc bc b7 44 80 3e 11 03 b8 3c
       -0.076620065 -0.024978787 0.25052425 0.0224624
000250 75 0d fe 3c 8a 4a 90 bc 23 32 27 bd ed 74 11 3d
       0.031012276 -0.017613668 -0.0408193 0.0355119
000260 6f 2d 92 3d 24 24 d4 bc 01 c6 91 ba ea 64 78 3d
       0.07137572 -0.02589614 -0.0011121632 0.060643114
000270 3e b8 37 3d be 5b fc bd a7 eb 96 3d e9 7a aa 3d
       0.04485344 -0.12322186 0.07369166 0.083242245
000280 e6 46 39 3e 6a a3 f6 3d 65 a5 08 3d 76 da c6 bd
       0.18093452 0.120428875 0.033360858 -0.09709637
000290 a5 b6 1c bd dd 86 60 3e df b2 02 3d 2d ed dc bd
       -0.03826012 0.21926446 0.031908866 -0.10787425
0002a0 49 7b bb bd d3 47 9c bd ec b8 91 3d af c4 a9 3c
       -0.09154374 -0.07630887 0.07115349 0.020723669
0002b0 7d 21 70 bd 4c 5c 25 3d b2 47 ef bd 58 95 1e 3d
       -0.058625687 0.040371224 -0.11683597 0.038716644
0002c0 69 20 02 be a7 9b 58 be d3 e9 a4 bd 02 80 2d bd
       -0.12707676 -0.21153127 -0.08052411 -0.042358406
0002d0 f9 0a 38 3c 04 3a 23 bc b2 00 30 bd d0 dc 62 be
       0.011233085 -0.0099625625 -0.042969413 -0.22154546
0002e0 8b 23 89 bd 64 4a 12 3e 88 7c 97 bc 80 5e 72 be
       -0.066962324 0.1428619 -0.018491998 -0.23668861
0002f0 46 11 4c be 93 61 d7 bd 5f 94 10 3e a6 85 54 bc
       -0.19928464 -0.10516658 0.14119099 -0.012971317
000300 ab 3b 88 bd 25 4f 31 be 8c 44 0c be d5 1c 04 3d
       -0.06652006 -0.17315347 -0.13698024 0.03225406
000310 f8 e4 33 bd 42 63 8c bc 16 30 57 3d fa 30 35 bd
       -0.043919533 -0.017137174 0.052536093 -0.04423616
000320 b6 9a 16 3c 1d 65 4d bd 1c e9 11 be 55 47 07 bd
       0.009192159 -0.050145257 -0.1424908 -0.033027012
000330 ee 3b c6 bc 2d 5c 7b 3d 42 22 bc 3d 65 f3 77 bd
       -0.024198499 0.061367203 0.09186222 -0.060534853
000340 ef 40 bf bd dc 8f 92 bd 6f 0c 8e 3d 11 a0 08 3b
       -0.09338557 -0.07156345 0.06935965 0.002084736
000350 8b 2a 10 be 3a 3f 79 bd 11 f0 0d bd 33 6f 3c 3e
       -0.14078729 -0.060851313 -0.034652773 0.18401794
000360 94 44 ab bb e6 90 f9 3c 83 f7 a3 bd 5a a6 11 be
       -0.005226681 0.0304646 -0.080061935 -0.14223614
000370 00 e3 95 3c b0 55 a7 bc d3 d8 61 bd fd 1f f3 3d
       0.018296719 -0.020426601 -0.05513842 0.11871336
000380 68 9e c3 3c df 08 c0 bb dc 5f 42 3c 76 44 f6 3d
       0.023879245 -0.0058604325 0.011863675 0.12024777
000390 42 2d c3 3d a0 ce eb 3d 88 9f 46 be 17 9a 77 3b
       0.095301166 0.1151402 -0.19396794 0.0037781054
0003a0 c9 6c 91 bd 7a 16 5f 3d 53 dd ea 3d 53 1c da bd
       -0.07100827 0.054464795 0.114679955 -0.10649934
0003b0 88 8f 8a 3d 9f 48 3f bd 21 b9 12 3e 52 e4 40 3d
       0.06765658 -0.046700116 0.14328434 0.047092743
0003c0 5e 6a 5c bd 89 08 1a bc bf bd 12 bc 72 ad 98 3d
       -0.053812377 -0.009401449 -0.008956372 0.07454957
0003d0 78 7b 0b 3d 5e b4 ab 3c c3 54 28 bc c3 6c 68 3d
       0.034053296 0.02096003 -0.010274115 0.05674435
0003e0 c1 b5 76 3d 71 d2 a3 bd 93 1e 39 be fa 07 b9 bd
       0.060231928 -0.07999123 -0.1807807 -0.090347245
0003f0 f9 f6 41 bd f6 2f 0a 3d 5c 04 4a 3d bc df 82 bd
       -0.047354672 0.033737145 0.049320564 -0.0639033

bias f4 [12]
000000 56 65 9c bd ba 26 ec bc 3f 4f b9 bd fc 28 0e bd
       -0.07636516 -0.02882706 -0.09048318 -0.034707054
000010 3e f9 89 bc 7d 44 18 3d 83 c6 a1 bc 70 b1 7b bd
       -0.01684248 0.03717469 -0.019747978 -0.061448514
000020 01 4f 22 bc 67 0c b7 bc a1 01 b0 bb 19 c5 11 bc
       -0.009906531 -0.022344781 -0.005371288 -0.008897089

weight f4 [12]
000000 86 d3 61 3f 23 d5 59 3f cf 55 4a 3f a0 ca 46 3f
       0.88213384 0.85090846 0.79037184 0.7765293
000010 ac 6c 26 3f 69 a4 a0 3f e2 ba 86 3f b0 ed 32 3f
       0.6500957 1.2550174 1.0525782 0.6989393
000020 d7 7e 79 3f 4c c1 30 3f 90 fd 22 3f 67 b8 8e 3f
       0.9745917 0.6904495 0.63668156 1.1150025

bias f4 [12]
000000 a5 3e 7f 3d b5 94 04 3e 9d 60 6d be 37 62 f8 bb
       0.0623156 0.12947352 -0.23181386 -0.0075800675
000010 60 a6 92 bd 65 ec 22 3f 92 67 c5 3e 50 ee c7 3c
       -0.0716064 0.6364196 0.3855558 0.024405628
000020 c3 19 37 3e b5 b6 31 bd 0e d7 91 be 8b f3 d2 3e
       0.17880921 -0.043387134 -0.28484386 0.41201434

running_mean f4 [12]
000000 00 53 32 3c c6 2d 0b bd 11 43 4d 3d 56 98 4f bd
       0.010884047 -0.0339792 0.050112788 -0.05068239
000010 95 0c b9 bd 5a 01 c2 3b fe 27 82 bc 0c 29 b9 3b
       -0.09035603 0.0059205713 -0.01588821 0.005650645
000020 3b e4 92 bc df f1 85 3c ab cb 0a be 75 ea 47 3c
       -0.017931094 0.016350685 -0.13554256 0.012201895

running_var f4 [12]
000000 86 dc 35 3d 40 fc 04 3e 64 da cb 3e 3e 07 8a 3e
       0.04439976 0.1298685 0.39815056 0.2695865
000010 9b 5b 06 3e 49 58 2b 3d bc ce 8e 3d 0d 25 03 3e
       0.13120882 0.041832242 0.06973025 0.12807103
000020 49 0e 19 3d b1 b1 8e 3d 1f 47 fa 3e eb 20 54 3d
       0.03736714 0.06967486 0.48882386 0.051789206

weight f4 [12, 12, 5, 5]
000000 55 1b 16 be 0c f7 d4 bd 32 7a e3 bd 0b d9 a3 bd
       -0.14658864 -0.10398683 -0.11107291 -0.08000382
000010 64 de 89 3c 7b 27 44 be e6 4a 3a be 31 ed 06 be
       0.016829677 -0.19155686 -0.18192634 -0.13176419
000020 9a f2 35 be 64 fc 09 be d8 ed 4c be 48 0e 63 be
       -0.17768326 -0.13475186 -0.20012605 -0.22173417
000030 d1 d6 06 be 5a 7b 32 be 8a 0f 31 be cb 62 86 bd
       -0.13167883 -0.17429867 -0.17291084 -0.06561812
000040 d7 cd 2e be 86 11 6d be 83 22 a5 bd 57 08 ae bd
       -0.17070709 -0.23151216 -0.08063223 -0.084976844
000050 46 33 88 3c 83 9c c9 3c 5b 25 cc 3c 63 ad a7 3d
       0.016626012 0.024610763 0.024920156 0.08187368
000060 9e 43 31 3d bd bf d1 bb 68 14 2a 3d 65 31 e4 bc
       0.043277375 -0.006401031 0.041523367 -0.027855584
000070 6c 1d 05 be 16 4a b8 bd 24 81 4b 3d 44 af 11 3d
       -0.12999505 -0.08998506 0.049683705 0.035567537
000080 2b d4 a9 bc 20 5b d6 bd e8 38 47 be 89 d7 d1 3d
       -0.020731052 -0.104665995 -0.19455302 0.10246188
000090 34 60 26 3e 2b 69 3d 3e d7 21 c2 3d 38 6a 9a 3d
       0.16247636 0.1849715 0.09479111 0.07539791
0000a0 00 a1 b1 3d 84 ff aa 3d ff da 1d 3e 1e b9 e6 3d
       0.086732864 0.08349517 0.15415572 0.11265777
0000b0 3e dc 9c 3d 1e be 9d bd ba dc 1b be 1d 02 90 bc
       0.07659195 -0.077022776 -0.15220919 -0.017579133
0000c0 c4 b7 cc bb ec 63 a1 3b 6b 29 fb bd 94 36 27 bd
       -0.0062474925 0.0049252417 -0.12263759 -0.040823534
0000d0 c4 11 fa bc 01 c9 86 bd 1f f5 29 bd eb 1c cd bd
       -0.03052605 -0.06581307 -0.04149353 -0.10015281
0000e0 3f 12 68 3c 76 7e a9 bb 6c b6 c2 3c 04 e1 27 bc
       0.014164506 -0.005172546 0.023768626 -0.010246519
0000f0 25 44 8f bd b8 3e 0e bd f2 17 e5 3c 56 7c ea 3c
       -0.069954194 -0.034727782 0.02796552 0.028623741
000100 e2 5d 86 bc 8d 27 1b be fb 1c 6d bd 5c 3b 17 3d
       -0.016402189 -0.15151806 -0.057888966 0.036921844
000110 13 82 c1 bc 41 68 27 bd 4a 2f 08 be 0c 19 41 be
       -0.023621595 -0.04087091 -0.1329929 -0.18857211
000120 03 c1 e0 bd 45 12 dd bd bf 32 8f bc f2 09 e3 bd
       -0.10974314 -0.107945 -0.017480252 -0.11085881
000130 31 19 c3 3c 81 db 00 bc ec c9 b0 bd ed 12 49 bd
       0.023815723 -0.007864834 -0.086322635 -0.049090315
000140 84 05 9b bd c8 1b 27 bb 0a c7 f0 bc 3f 51 7d bd
       -0.075694114 -0.0025498737 -0.029391784 -0.06184506
000150 5f c5 b8 bd de 50 da bd 20 f0 a5 3d 9a f3 b2 bd
       -0.090220205 -0.106599554 0.08102441 -0.087378696
000160 67 ca b8 bd 0f ce a9 bd 26 32 af 3b 9c 61 07 3e
       -0.0902298 -0.08291256 0.0053465543 0.13220829
000170 53 b0 2f 3d 3d 93 93 bd 2c 51 35 bd 7f 97 1e bd
       0.042892765 -0.07205818 -0.044266865 -0.038718697
000180 24 46 e0 3d 3b 5a 8a bb f9 9c 76 bb b1 ad c9 3a
       0.10950878 -0.004222182 -0.0037630184 0.0015386847
000190 27 c5 bc bd 9e 9c 5b bd b4 ed b8 bd 4f 37 99 bd
       -0.09217291 -0.05361616 -0.09029713 -0.074812524
0001a0 4c bb 15 be de fd 77 3d 37 74 84 3d 85 62 d8 3b
       -0.1462223 0.06054484 0.06467479 0.0066035413
0001b0 8b ef 89 bc 15 70 89 bd b3 bb 10 3e c3 75 08 3e
       -0.016837856 -0.06710831 0.14134102 0.13326173
0001c0 38 d8 85 3d f8 29 36 3d db ce b4 3c 02 0e 5a 3e
       0.06535381 0.04447362 0.022071293 0.21294406
0001d0 c2 a6 16 3e f1 d6 2e 3e eb 26 e6 3d bb ac e9 3c
       0.1471205 0.17074181 0.11237892 0.028524747
0001e0 ae bf da 3d 55 57 4e 3e 94 4b 23 3e b7 75 b2 3d
       0.10681091 0.20150502 0.159468 0.087138586
0001f0 67 d7 9f bc e1 84 b9 bd 7c 8e 21 bc c4 95 74 3d
       -0.019511892 -0.09058548 -0.009860631 0.05971314
000200 75 7c 8d 3d 46 a8 4a bd 7e de de bd 4b b2 bc bd
       0.06908504 -0.049476884 -0.10882281 -0.09213694
000210 ee 00 9a bc 06 80 20 3d 47 fe 0c bd 60 df a9 bd
       -0.018799271 0.039184593 -0.034422185 -0.082945585
000220 cd b1 b4 bd 12 74 8f bc ab fe 51 3d 32 40 82 bb
       -0.08822975 -0.017511401 0.05126826 -0.003974938
000230 de d8 80 bd 7c 76 24 bd 69 da d8 3b 73 8e 88 3d
       -0.06291364 -0.040152058 0.0066178334 0.06667795
000240 18 99 16 bc 7c a5 9e 3c 60 2f 19 3d a0 31 ea bd
       -0.009191774 0.019366018 0.037398696 -0.114352465
000250 e1 36 a6 bd 89 2b cc bc b7 28 e1 bd 4f dc 4b be
       -0.08115936 -0.024923103 -0.10994094 -0.1990826
000260 90 de f3 bd 2c 56 c8 bd 02 32 2a be fa 4e 05 3d
       -0.11907685 -0.09782061 -0.16620639 0.03254602
000270 6a ad a8 3c 35 81 5a bd 75 60 7c bd 7f a1 d3 bd
       0.020590503 -0.053345878 -0.061615426 -0.10333537
000280 7e 08 ef 3d 99 be cf bc 8c 94 a4 bc 02 29 90 bd
       0.11671542 -0.025359439 -0.020090364 -0.070390716
000290 8b f5 0f bd eb a3 02 3e 15 5b ad 3d 3f c0 c5 3b
       -0.035146277 0.12757842 0.08464638 0.0060348804
0002a0 31 9f 11 3c ba 36 c9 bd b4 73 27 3d 18 3b 93 3d
       0.008888052 -0.098248914 0.040881827 0.071890056
0002b0 7c 13 b8 3d 16 7b c7 bd a5 be 01 be a5 8c ac bc
       0.08988091 -0.09740274 -0.12670381 -0.021063158
0002c0 c1 2f 19 bd 46 91 90 bc 85 c4 c0 bd b0 5f 1c be
       -0.037399057 -0.017647397 -0.09412483 -0.15270877
0002d0 22 7d cb 3b d9 8f 08 bd 61 b4 f4 bd 37 e8 6a bd
       0.0062099854 -0.03334031 -0.11948467 -0.057350364
0002e0 98 29 d6 bd bc 4e 0c bd 81 31 ca 3c b5 d7 87 bd
       -0.10457152 -0.034254774 0.024681808 -0.0663294
0002f0 d9 4d 86 bd 2d 8a 64 be 75 22 80 3d 99 33 0e 3d
       -0.06557817 -0.22318335 0.06256572 0.034717176
000300 8b 67 6b bd 45 fd c8 bd 4f 46 1f be 11 bf cf 3d
       -0.057471793 -0.09813932 -0.15554164 0.10143865
000310 c4 43 1e 3e 97 eb 24 3d 4d 98 25 3d b5 78 b1 bc
       0.15455538 0.04026374 0.04042845 -0.021664003
000320 cb 4f 13 bd 35 76 88 3d 2a 31 44 bc 6a c6 c7 ba
       -0.03596477 0.06663171 -0.011974612 -0.0015241627
000330 e0 09 0c bd 0b cb 3c bd 9c 4b d0 3d e2 a7 87 3c
       -0.034189105 -0.046092074 0.10170671 0.016559545
000340 52 9e 1a ba 74 2f cf bd 8d d1 91 3d 73 92 1d 3e
       -0.00058982254 -0.10116473 0.07120047 0.15387897
000350 0f 17 a0 3d bc 41 b2 bc 6a 9b a1 bd 7e 88 93 3c
       0.07816898 -0.02175986 -0.07890971 0.01800942
000360 96 c3 17 3e 80 68 d1 3d a6 35 e6 3d 91 42 d5 bc
       0.14820704 0.1022501 0.112407014 -0.026032718
000370 05 d0 ff 3c eb 09 9b 3d d0 13 7a 3d a7 c7 e0 3d
       0.031227121 0.07570251 0.06105405 0.10975581
000380 2f 59 9d 3a 1b 0f 02 bd 34 23 9a bd 54 e4 4b bd
       0.0012004728 -0.031752687 -0.07526246 -0.049778298
000390 4a 5f c4 bd 55 76 d3 bd 8d 9d 86 bc 10 6e d7 bd
       -0.095884874 -0.103253044 -0.016432548 -0.1051904
0003a0 9e ed e2 bd 10 a3 c3 bd 59 73 ea bd 87 5a fa bc
       -0.11080478 -0.09552586 -0.11447782 -0.030560745
0003b0 3c e0 c2 bb 5d 79 1b be 23 2f de bd 78 0d b9 bd
       -0.005947141 -0.15183015 -0.10848834 -0.09035772
0003c0 a6 b5 94 3d 3a 4f 2d 3d 5f 64 63 bd 28 fd 0b bd
       0.07261209 0.042311884 -0.055515643 -0.034176975
0003d0 46 b4 8f bd 39 b2 2b 3e 16 fa 80 3d 19 6d 89 3b
       -0.07016806 0.16767205 0.062977 0.0041939137
0003e0 0f 4a 76 bd 63 0e a7 bd ab b3 de bd be 7b 14 be
       -0.06012922 -0.08157041 -0.10874113 -0.14500329
0003f0 16 b1 ff bd 10 54 07 be ac 1e 3e be f6 b9 c4 bd
       -0.12484948 -0.13215661 -0.18566388 -0.09605782

bias f4 [12]
000000 01 b6 9f bc cc ce 73 bd 04 f9 ef bc 90 dd 01 bd
       -0.019495966 -0.05952339 -0.029293545 -0.03170544
000010 c4 a6 16 be 18 1f c5 bc b4 3d 0d bd 2e 23 79 3c
       -0.14712054 -0.024062678 -0.034482673 0.015206141
000020 02 87 fb bc 44 55 99 bd 05 2b 7b bd 36 ab a4 bd
       -0.030704025 -0.07486966 -0.061320323 -0.080404684

weight f4 [12]
000000 22 a2 3c 3f 9a 9c 73 3f 8c 0a 86 3f 61 c8 49 3f
       0.73684895 0.9516083 1.0471969 0.7882138
000010 4c 98 99 3f 36 b7 63 3f 04 52 42 3f 58 ec 6c 3f
       1.1999602 0.8895143 0.75906396 0.9254813
000020 c1 ff 4e 3f b6 ce 65 3f 08 84 63 3f 2a 42 78 3f
       0.80859 0.8976854 0.8887334 0.9697596

bias f4 [12]
000000 c3 c1 18 be 62 ba 80 be e9 28 3e be 69 4f 07 be
       -0.14917664 -0.251422 -0.18570293 -0.13213886
000010 3c 95 da be e8 2d c8 bd 1a 49 ca bd be 2f 30 be
       -0.42691982 -0.09774381 -0.09877224 -0.17205712
000020 4a 6b 14 be 04 1c 94 be c9 74 4a be 02 b9 7a be
       -0.14494053 -0.28927624 -0.19771113 -0.24484637

running_mean f4 [12]
000000 ed 50 9e bf c1 16 3c bf d3 ca 30 3d 24 f2 3f 3e
       -1.2368447 -0.7347222 0.04316218 0.18744713
000010 2b 09 56 bf 0f f7 4c bf c4 df 7b bf 30 b7 bf be
       -0.8360774 -0.8006448 -0.98388314 -0.37444448
000020 d3 05 a0 bf d3 3f ff be 38 d8 36 bf fe 6f 47 bc
       -1.2501777 -0.49853382 -0.71423674 -0.012172697

running_var f4 [12]
000000 59 50 36 40 ef 35 37 40 97 42 3b 40 23 4c 20 40
       2.848654 2.8626668 2.9259393 2.504647
000010 b3 9a f8 3f 22 8d 03 40 d9 16 43 40 f5 c7 b0 3f
       1.942221 2.055489 3.0482695 1.3811022
000020 fe 8f 17 40 b8 8e d4 3f f5 57 51 40 d8 b6 1b 40
       2.3681636 1.6606054 3.2709935 2.433035

weight f4 [24, 12, 5, 5]
000000 cc 3a 47 be 6b dd 0e bd f9 7f 48 bd 53 2e 09 bd
       -0.19456023 -0.03487913 -0.04895017 -0.033491444
000010 c4 96 9e 3c 25 c1 93 bd 6e c7 33 3c 06 3e 2c 3e
       0.019359 -0.07214574 0.010972841 0.16820535
000020 63 4f fe 3d 14 f2 96 3d 49 39 a9 3b c3 2e 83 3d
       0.124174856 0.073703915 0.0051642996 0.064054035
000030 1c eb 12 3e 64 75 ff 3d 31 a7 86 3d 51 0f 02 bd
       0.143475 0.12473562 0.06574858 -0.031752888
000040 7d 88 58 bd fa b3 c8 3c 47 a4 8c 3c a4 97 af bc
       -0.05286454 0.024499882 0.017168177 -0.021434613
000050 3b 5b 96 bd 0b 37 94 bc 90 02 57 3d 60 c9 50 bd
       -0.073416196 -0.018092653 0.05249268 -0.050973296
000060 bb 63 eb bd 75 89 cf bd 48 cf fa bd 07 e3 6a bd
       -0.114936315 -0.1013364 -0.12246567 -0.057345416
000070 6c 02 f7 bd 4e dd 80 3d 08 a0 4b 3d 19 91 4b bc
       -0.12061009 0.062922105 0.049713165 -0.012424731
000080 1c 6d bc bd 7b 41 e9 bd 5b 63 88 3b 3a 0a 3c bc
       -0.092004985 -0.113894425 0.0041622347 -0.011477048
000090 af cf 86 bd ed ed b6 3a 57 2b 09 be 9c 18 b9 3d
       -0.06582581 0.0013956405 -0.13395439 0.09037897
0000a0 bb 43 62 bd df c3 47 bc f3 f9 e4 3b 83 eb 05 be
       -0.055240374 -0.012192695 0.006987804 -0.13078122
0000b0 8a ac b6 3d 28 76 10 be bc 89 a6 bd 5a 4c 4f bd
       0.08919628 -0.14107573 -0.081317395 -0.050609924
0000c0 b8 78 27 bd 0c d7 dd 3d 86 e4 94 bd 22 f5 6e bd
       -0.04088661 0.108320326 -0.0727015 -0.058339246
0000d0 83 e6 93 bd 2b e9 e0 bd e6 df 00 be e2 82 e2 3b
       -0.07221701 -0.10981973 -0.1258541 0.006912575
0000e0 1e 36 27 bd 5c d3 ff bc 23 e0 f6 bd c7 95 89 bd
       -0.040823095 -0.031228714 -0.120544694 -0.06718021
0000f0 a7 58 d0 3d e1 57 3d 3c 5c ed a3 bc 16 8c 28 be
       0.10173159 0.0115565965 -0.020010643 -0.16459689
000100 d4 19 69 3b cb db 64 3d 6e 3d 4d 3b 16 f0 df bd
       0.0035568373 0.055873673 0.0031317133 -0.10934465
000110 8e f9 e2 bd 4c aa 18 bd 9f c3 c7 bd 4b 54 8a bd
       -0.11082755 -0.037271783 -0.09754109 -0.06754359
000120 88 57 25 be 1a c4 38 be c1 fc 55 be a0 0b f9 bc
       -0.16146672 -0.18043557 -0.20897199 -0.030401051
000130 e8 db 5a 3d 5d fd 2a 3e 90 b5 a6 3d 35 79 d0 3c
       0.053432375 0.16698213 0.08140099 0.025448421
000140 28 df 83 bd 77 10 e2 3d 82 b7 a6 3d 9b f6 7f 3d
       -0.06439048 0.11038297 0.0814047 0.06249104
000150 5f 35 ed 3b 9c 68 79 bd f7 ef f8 3c 8e 71 73 3d
       0.0072390283 -0.06089078 0.030387862 0.059434466
000160 01 31 9a 3b ec 25 7e bd 20 3e 16 3c 35 b3 8d 3d
       0.0047055488 -0.062047884 0.009170085 0.06918947
000170 f7 15 e5 3b e5 a4 41 bb bf 0a 72 bd a5 60 69 3d
       0.006991144 -0.0029547748 -0.05909228 0.056976933
000180 42 35 49 3d 15 1b 07 3d 82 ea 92 3d df 91 8c bd
       0.049123056 0.03298481 0.07173635 -0.0686376
000190 f9 b8 55 3d 28 7c c1 3d 14 60 36 bd 4f 14 b6 bd
       0.052178357 0.09447509 -0.04452522 -0.08890592
0001a0 73 1d f9 3d 44 d0 41 3e eb ef 15 3e 94 62 ec 3c
       0.1216382 0.18927103 0.14642303 0.0288556
0001b0 e2 d1 25 be 71 29 de 3d c3 ca 3d 3e 1c da 2f 3e
       -0.16193345 0.10847748 0.18534379 0.17173046
0001c0 1e 60 3d 3d cf b2 1b be d4 09 db 3d cd 5a 4e 3d
       0.046234243 -0.15204929 0.10695234 0.050379563
0001d0 3c 51 02 3e 27 ea e6 bd 77 77 74 be 36 16 60 3d
       0.12726301 -0.1127513 -0.23873697 0.054708682
0001e0 ce 28 5e 3d a5 0a a6 3d 61 78 6e bc fe b6 0e be
       0.054238133 0.08107499 -0.014555068 -0.13936993
0001f0 fa 54 29 3e 6f 35 4e be 35 e0 0b be d8 ca 02 bc
       0.16536322 -0.20137571 -0.13659747 -0.007982932
000200 e6 be 83 3d 94 2d 4b 3d 7a c7 ce bc 1b 79 6f 3d
       0.06432895 0.049604014 -0.025241602 0.058465105
000210 ac c4 10 3e 7d be 5a 3e bd d4 e4 3d a3 80 22 be
       0.14137524 0.21361728 0.11173389 -0.15869384
000220 f0 28 63 bc 35 d9 94 3d 8a e5 10 3d e1 61 9b bd
       -0.013864741 0.072679915 0.035375156 -0.07587028
000230 98 64 c0 bc ed be f3 3b ae db 21 3e ee 88 18 3e
       -0.023485467 0.0074385316 0.15806457 0.14895985
000240 a1 be c9 3d 41 c9 eb bd 22 19 dc bd 26 56 2d bc
       0.09850813 -0.115129955 -0.10746981 -0.010579621
000250 c5 8e ec bc d6 38 77 3c fa 80 17 bc e6 c1 18 bd
       -0.028876672 0.015089234 -0.009247059 -0.03729429
000260 15 c3 0f 3c 2c b5 06 3e c8 93 92 3c 93 c6 f7 3a
       0.0087745385 0.13155049 0.017892733 0.0018903784
000270 9c ed 1c bc 7f e7 4d bd 50 ec da 3c 18 76 88 bd
       -0.009578135 -0.0502696 0.02672401 -0.066631496
000280 79 33 a6 3c f0 a6 57 3d 5c 00 69 bd 99 2f fd bc
       0.020288216 0.05264944 -0.05688511 -0.030906485
000290 9d 02 0c 3c 92 d2 9a 3d 58 80 83 3d da 53 84 bd
       0.008545545 0.07559694 0.06420964 -0.06461306
0002a0 35 24 ca 3c 9c 23 ab bd 70 54 1b 3d 83 ae 6e 3d
       0.024675468 -0.08356401 0.037922323 0.058271896
0002b0 af 06 f0 bc 02 95 d6 bc cd e7 0e bc e9 20 1f 3d
       -0.029300062 -0.0261941 -0.008722258 0.038849745
0002c0 78 ad 57 3d c0 8e 83 3c 90 7f 5c 3c 29 94 1c bd
       0.052655667 0.01605928 0.013458148 -0.038227234
0002d0 5b a8 b1 bc 3e da c9 3d 9f 1a 04 3d 52 02 6a bd
       -0.021686723 0.098560795 0.03225195 -0.05713112
0002e0 85 63 80 bd 5d be c6 3c 7c 37 90 3d 44 ca 06 3e
       -0.06268982 0.024260694 0.07041833 0.13163096
0002f0 96 a2 b0 3d b2 f8 f3 3c 3b 07 a2 3d 82 4a c7 3d
       0.08624761 0.029781673 0.07911535 0.09731008
000300 7f cb 64 3d 39 cf 82 3c ae a2 de bd 8f 43 30 bd
       0.05585813 0.015967952 -0.108708724 -0.04303318
000310 3f ea b8 bb b4 c9 cf bd d1 8c 04 be 93 0b 2a be
       -0.0056431587 -0.10145894 -0.12944342 -0.16605978
000320 e1 09 ea 3d d2 14 9f 3d f5 cd 86 3d b4 25 77 bc
       0.114276655 0.07767643 0.06582252 -0.015084673
000330 74 4b 09 bd c7 49 de 3c c1 cf bf bb e4 93 17 3d
       -0.033519223 0.02713479 -0.0058536236 0.037006274
000340 b7 22 c6 3d 01 c8 d9 3c 59 df 83 3c 80 30 2d bd
       0.0967459 0.026584627 0.016097711 -0.04228258
000350 d7 78 5b bd 1c ce c0 3d ad c9 d8 bb 08 bf f0 3c
       -0.05358204 0.09414312 -0.0066158385 0.029387966
000360 4d 40 2b bc f7 b6 cb bc 45 0f b2 bc 72 96 56 bd
       -0.010452342 -0.024867518 -0.021735797 -0.05238957
000370 b6 7a 3f 3d ca 0d 0e 3d 1e fa 54 bd e8 3e 2a bd
       0.046747886 0.03468112 -0.051996343 -0.0415639
000380 0c f1 b2 bd 39 70 46 3d 6d c1 82 3d 43 4d 0f 3e
       -0.08737382 0.048446868 0.06384549 0.13994317
000390 27 1a 41 3e 4b d7 98 3d ee 84 25 bd 32 53 4a 3d
       0.18857633 0.07462939 -0.040409975 0.049395747
0003a0 42 8d b2 3d 24 9c 54 3e 27 fe 3f 3e 25 ed 8a 3c
       0.08718349 0.20762688 0.18749295 0.016958782
0003b0 25 c6 51 3d bd 26 ba 3c 9b d4 66 3d 2c 7e d2 bb
       0.051214356 0.02272355 0.0563551 -0.0064237323
0003c0 46 73 c3 bc 47 ef 83 3d 30 3b 5a 3d a1 86 12 3e
       -0.023858678 0.06442123 0.0532791 0.1430917
0003d0 e0 77 d0 3d ed 85 e6 bc 7b 6e 87 3d 75 b9 af 3d
       0.10179114 -0.028140033 0.06612869 0.08580295
0003e0 27 c7 a9 3d 9a c1 c6 3d 6f b7 48 bc 07 44 f6 3c
       0.082899384 0.09704895 -0.012250765 0.030061735
0003f0 fb d2 0d 3e 4c ae 13 3e 71 14 c8 3c 21 f1 70 bb
       0.13850014 0.14421958 0.02442381 -0.0036764818

bias f4 [24]
000000 87 1b bd 3c 82 f9 22 3c a6 e8 b3 bc c9 ae 9f 3c
       0.023084415 0.009947183 -0.021961521 0.019492524
000010 55 fd 2d bd 2f 61 97 bd c5 1e 84 bd 27 ef ef bc
       -0.042477924 -0.07391583 -0.06451181 -0.029288841
000020 11 34 13 bd 93 53 80 bd 4a ec 6e bb 4f db a6 3c
       -0.035938326 -0.062659405 -0.0036456757 0.020368246
000030 d2 07 97 bc d6 00 b1 3c cf 8c f2 3b 27 32 23 bd
       -0.018436346 0.021606844 0.0074020396 -0.03984275
000040 77 b8 b1 bb cb 85 65 bd 12 05 a1 bb fc cf 31 bc
       -0.0054236013 -0.056035798 -0.0049139345 -0.01085281
000050 95 d1 0d 3d a0 c4 e5 bc bd ee 84 bd bb 00 52 3d
       0.0346237 -0.02804786 -0.06490848 0.051270228

weight f4 [24]
000000 04 6a 5f 3f a9 10 74 3f 63 b8 76 3f 60 07 6b 3f
       0.8727114 0.9533792 0.963751 0.9180813
000010 d5 86 53 3f 6a ad 66 3f 03 23 67 3f 8a 74 83 3f
       0.8262761 0.9010836 0.902878 1.026994
000020 ec 81 69 3f 06 43 48 3f 25 73 7c 3f b7 7b 51 3f
       0.9121387 0.7822727 0.98613197 0.818294
000030 3e ee 81 3f 2e 00 67 3f 70 3b 81 3f 4d e4 72 3f
       1.0150831 0.9023465 1.0096264 0.9487961
000040 49 a0 61 3f 87 7f 68 3f 7f ab 6b 3f 24 f6 5c 3f
       0.881352 0.9081959 0.9205856 0.8631308
000050 95 4c 82 3f b9 2b 7b 3f 1f 3a 5b 3f 73 f5 77 3f
       1.0179621 0.9811359 0.8563556 0.968589

bias f4 [24]
000000 3c 06 d2 3c b0 a6 30 be f3 33 cc bd e9 b8 cc bd
       0.025637738 -0.17251086 -0.09970846 -0.09996206
000010 7c ed cb bd a4 e4 c9 bd 1c 45 05 be 5e 11 99 bd
       -0.09957406 -0.09858063 -0.13014644 -0.07474016
000020 13 e7 ba bd e3 47 64 be 83 b7 04 be 44 ee b4 bd
       -0.09126105 -0.22293048 -0.12960629 -0.08834508
000030 6a fa c1 bc 53 11 8e ba 06 eb 45 bd f8 5d f3 bd
       -0.023678977 -0.0010838903 -0.04831984 -0.118831575
000040 41 0d e9 bc e9 da da bd 6a d6 43 bd 81 fb fa bd
       -0.028448703 -0.10686285 -0.047811903 -0.12255002
000050 2b ba 87 bb 35 b9 82 bd 0d 11 e7 bd bf 83 24 be
       -0.004142066 -0.06382982 -0.11282549 -0.16065882

running_mean f4 [24]
000000 4e fe cd 3e 19 aa c0 bf 7b 72 6e bf 0a fc bf 3d
       0.40233082 -1.505191 -0.93143433 0.093742445
000010 ac 1d 8e be a2 0d 74 bf 20 8b 91 be 97 b9 51 bf
       -0.27757013 -0.953333 -0.28426456 -0.8192381
000020 d8 05 83 bf fe 96 f8 3d 68 f6 cd bf 54 9f cc 3e
       -1.0236158 0.121381745 -1.6090822 0.39965308
000030 a4 83 b0 bf fd 72 52 3e e1 10 cc bf b0 4c f4 bf
       -1.3790174 0.20551677 -1.5942651 -1.9085903
000040 fb b2 08 be a1 c3 97 be c3 9e 2a c0 55 c6 72 3d
       -0.13349526 -0.2964144 -2.66594 0.059271175
000050 7b 2b 99 bd d3 be 17 c0 28 07 58 bf 9e fa 11 c0
       -0.07478996 -2.371022 -0.8438592 -2.2809215

running_var f4 [24]
000000 e7 40 f5 3f c1 be 00 40 90 21 e8 3f cc 8f 2b 40
       1.9160432 2.0116427 1.8135242 2.6806517
000010 3a de 06 40 a7 2a 0d 40 f6 dc b0 3f 81 8f e9 3f
       2.1073136 2.2057283 1.3817432 1.8246919
000020 54 21 07 40 42 7a d8 3f 2d e3 38 40 24 63 d1 3f
       2.1114092 1.691231 2.8888657 1.635838
000030 6e aa f4 3f 1d 4c 9e 3f f3 be 19 40 1e 6c 37 40
       1.9114511 1.2366978 2.4022796 2.865974
000040 e8 2d da 3f f0 44 ea 3f 6d a1 1e 40 8e 31 d9 3f
       1.704526 1.8302288 2.4786026 1.6968248
000050 91 98 cd 3f 40 d7 0f 40 93 12 ec 3f 20 ae 1b 40
       1.6062185 2.2475128 1.8443168 2.4325027

weight f4 [24, 24, 5, 5]
000000 b4 8c 07 3e b0 f2 80 3d df 51 1e 3e ec ba d7 3d
       0.13237268 0.06296289 0.15460919 0.105336994
000010 cc a7 c6 3d d1 8e a9 3c 24 46 dd bd 1d 51 e8 3c
       0.096999735 0.020697983 -0.10804394 0.02835899
000020 23 1a bb bd c6 29 e8 3b ac b5 3f 3d 49 ab 73 bd
       -0.091358446 0.007085058 0.046804115 -0.059489522
000030 94 ab f9 bc 86 5a c0 bd 9b 02 6e 3d b2 7f 74 3d
       -0.030477323 -0.09392266 0.058107954 0.059692092
000040 98 74 70 bc e5 97 18 3c ab fc 82 bd b4 a8 ba 3d
       -0.014676236 0.009313558 -0.06395849 0.09114209
000050 8f 64 5c bd 73 0c fd bd f9 37 2c be 81 57 25 be
       -0.053806838 -0.1235589 -0.16818227 -0.16146661
000060 90 17 d4 bc b4 c0 16 3d 5e 52 15 3e 6c f2 f9 3d
       -0.025890142 0.03680487 0.14582202 0.122044414
000070 af 0f eb 3d 05 f3 f8 bc 50 63 2a 3b fa 90 0b 3e
       0.11477601 -0.030389318 0.0025999136 0.13629523
000080 ad 83 93 3d 2e 0b 68 3c 53 82 ae bd 65 4f 51 bd
       0.072028495 0.014162822 -0.08520951 -0.051101107
000090 05 05 5e 3d fd 33 e9 3c c7 27 6d bc c8 1a e7 bd
       0.054204006 0.028467173 -0.014474816 -0.11284405
0000a0 5f e4 d3 bd 95 4f 86 3d c8 99 51 3d d9 1c 64 bc
       -0.10346293 0.06558148 0.051172048 -0.013922893
0000b0 d7 17 92 bd 84 d4 69 be c4 32 9e bd 90 95 ff ba
       -0.07133453 -0.22834975 -0.077245265 -0.0019499529
0000c0 00 ca e8 bd 2b bb f1 bd 68 93 62 bc e3 ef 35 3d
       -0.113666534 -0.118032776 -0.01382909 0.044418227
0000d0 97 11 63 3c 78 3f dd bd 7a ff ba bd a2 58 25 bd
       0.013859174 -0.10803121 -0.091307595 -0.04036773
0000e0 08 54 da bc ef 46 02 bc 3f ac 00 bd 82 07 be bd
       -0.026651397 -0.007951482 -0.031414267 -0.09278776
0000f0 2d ec 29 bd 92 3b 00 3b e9 ba 97 bc 1c e1 97 3b
       -0.041485 0.0019566757 -0.018521743 0.0046349894
000100 7a 50 5e bd 9d 9e 97 3c c2 fd 05 3d 1a 8a 85 3b
       -0.054275967 0.01850825 0.032712705 0.004075301
000110 3d 9a 82 3d 2a a9 12 bd de 00 5a be 85 12 43 be
       0.06377075 -0.03580586 -0.21289393 -0.19050033
000120 1f cf 97 be 04 65 50 be b9 29 37 be 31 46 d8 bd
       -0.29650208 -0.20351034 -0.1788701 -0.10560263
000130 b2 01 cb bd 74 21 1c bd 88 73 28 3c 00 e3 2f bd
       -0.09912433 -0.03811784 0.010281451 -0.042941093
000140 f0 cc d4 bd 28 89 76 bd 15 b4 d6 bd 88 c2 45 bd
       -0.10390651 -0.060189396 -0.10483567 -0.048281223
000150 a5 6a 27 bc da 08 42 bd 75 22 02 be 16 6c 14 be
       -0.010218297 -0.047371723 -0.12708457 -0.14494357
000160 f2 71 0d be ce a9 85 bd ba 13 bd bd 51 b8 09 be
       -0.13812998 -0.06526528 -0.09232278 -0.13449217
000170 50 0c 33 be 46 2f 32 be da 11 01 be ea 10 86 3d
       -0.17485166 -0.17400846 -0.12604466 0.06546195
000180 30 f4 d4 ba 2b 77 79 bd d2 e8 9a bc 52 b0 38 3d
       -0.001624709 -0.060904663 -0.018909846 0.045090027
000190 98 e3 ac bd ad b0 18 be 77 7c 1d be 1c a1 b9 bd
       -0.084418476 -0.14911146 -0.15379511 -0.09063932
0001a0 52 72 8b bc 91 95 26 3c f5 a5 8e bd 3a 56 a4 bd
       -0.017022286 0.010167495 -0.069652475 -0.08024259
0001b0 fa 67 d7 3b b9 d0 19 3d 70 c2 91 3d 9c af f9 3c
       0.0065736743 0.03755257 0.07117164 0.030479245
0001c0 ad 9f d8 bc 7d da 42 3d e1 ce a6 3d 41 a7 00 3e
       -0.026443327 0.047571648 0.08144928 0.12563802
0001d0 85 5c 08 3e 0e 27 e3 3d bd 51 3a 3d e8 a2 24 3e
       0.13316543 0.110914335 0.045488108 0.16077769
0001e0 0a 14 81 3d 11 0b 3f 3d b9 8e 73 3d 31 85 08 3d
       0.0630265 0.046641413 0.059462283 0.033330146
0001f0 b1 8e af 3d 51 14 00 3d ea e5 77 3c 6a af 92 3d
       0.08572138 0.031269375 0.015130499 0.07162364
000200 42 ef 9d 3c 41 0b a2 3c 1c 4a 52 bd b9 34 8e 3c
       0.019279126 0.019780757 -0.051340207 0.017359124
000210 24 aa 0e 3d 59 75 ae 3c 27 1c 37 bd d8 e3 af ba
       0.034830227 0.02129619 -0.044704583 -0.0013419343
000220 be 6e c3 bc 6b a6 8c 3d 1b a5 a8 3d 33 11 9f bd
       -0.023856517 0.06867679 0.08234616 -0.07766952
000230 ad 32 4b bc 64 92 32 bd f1 12 0d 3d e5 86 2e 3d
       -0.012402219 -0.04359664 0.034441892 0.042609114
000240 25 49 6f bd f2 ac 05 be 7c c3 be bd 28 83 4e bd
       -0.058419365 -0.13054255 -0.093146294 -0.05041805
000250 ec ff 96 bc 16 28 1d be 6f 9e 11 3d d2 8f 9c 3c
       -0.01843258 -0.15347323 0.035551485 0.019111548
000260 4a dc 78 bd 06 8e 8c bd 0e c5 b7 bd 99 02 d6 3c
       -0.06075696 -0.06863026 -0.08973132 0.026124286
000270 73 76 b2 3c c4 3e 92 bd b0 88 ca 3b df 7d 55 3c
       0.021784997 -0.07140878 0.006180845 0.013030498
000280 49 aa 91 bd eb ac 5d bc fc 44 8a bd 0d a6 3a bd
       -0.071125574 -0.013529996 -0.06751439 -0.045568515
000290 ad 69 e3 bc 31 49 22 be f7 09 7d bd 62 6b 08 3d
       -0.027760351 -0.15848233 -0.06177708 0.033305533
0002a0 6c ec cc 3b 12 02 6b bd c5 14 5a be 8d bb 8a bd
       0.0062537696 -0.05737502 -0.21296985 -0.06774054
0002b0 15 31 10 bd b1 05 37 3d 1d f5 06 bd c7 b5 42 3d
       -0.03520306 0.044683162 -0.032948602 0.047536638
0002c0 b8 d3 df 3c 6f 89 85 3d fa 41 fa 3d b3 55 27 bd
       0.027322635 0.06520354 0.12219615 -0.040853214
0002d0 9d 63 33 bc 5c 12 01 bd ba 23 10 3c 1c f4 d5 3d
       -0.010949043 -0.03151165 0.00879758 0.10446951
0002e0 7f 9e 7e 3b 6a 2c 88 bd 5f 76 92 bd 9f 42 89 39
       0.0038851795 -0.06649096 -0.07151484 0.00026180313
0002f0 e6 5c e9 3c 93 44 40 bd 0c 52 da bb e1 61 68 bd
       0.02848668 -0.046940397 -0.006662613 -0.05673397
000300 1e c9 15 bd 94 7f 84 bc 8a 1c 7a bd 39 74 19 bc
       -0.036568753 -0.016174115 -0.061062373 -0.009366089
000310 56 b6 87 bd ee 73 b0 bd ba 5a 06 be 4c 42 15 be
       -0.06626575 -0.08615862 -0.13120547 -0.14576072
000320 d0 24 c3 bd 38 fe e5 bd 92 7b 85 bd 07 52 db 3d
       -0.09528506 -0.11230129 -0.0651771 0.10709005
000330 e2 2b 9c bc db 73 a5 bd ed 8f 6c bd 52 1c d0 3d
       -0.019063894 -0.08078738 -0.057754446 0.10161652
000340 53 cb 41 3e 72 8d 38 3b 4c 1d 89 bd d7 1a 43 bd
       0.18925218 0.002816048 -0.06695041 -0.04763302
000350 73 a9 0b 3c 01 b5 c2 3d b1 f5 73 bd cc 82 29 bd
       0.008524287 0.0950718 -0.05956048 -0.041384503
000360 33 f3 0f 3d ae f2 8f 3d af 3c 2a 3d dd 6c b9 3b
       0.035144042 0.07028709 0.04156178 0.0056587295
000370 cd e0 63 bd b4 3a 43 bc 8f 41 f0 bd 3e 28 96 bd
       -0.05563431 -0.011915851 -0.11731254 -0.07331894
000380 c9 aa 93 bd 73 3f 12 3d e9 bd 05 bc d3 8d 5c 3d
       -0.07210309 0.03570504 -0.008162954 0.05384619
000390 75 fc 97 bd b2 3f a7 bc 43 51 65 3b 9d 73 06 3d
       -0.07421199 -0.020416114 0.0034991063 0.0328251
0003a0 00 6b bd 3d e7 37 0a 3c d5 e1 bf bd 7f 52 83 bc
       0.09248924 0.00843618 -0.09369246 -0.016030548
0003b0 e6 56 a8 bd c8 c1 1a 3d 0c d7 81 bd 73 32 12 be
       -0.082196996 0.03778246 -0.06339845 -0.14277057
0003c0 68 3d d1 bc bb 9f 34 bd e1 2c 50 3d 62 80 6a bd
       -0.025541976 -0.044097643 0.05082405 -0.05725134
0003d0 65 b7 f0 bd 9c 6c 96 bd c4 49 d7 bd 9f 28 54 bc
       -0.1175373 -0.07344934 -0.105121166 -0.012949138
0003e0 81 a4 ec bc 13 2f 16 bd 28 91 3f 3e 23 01 e2 3d
       -0.028887035 -0.036665987 0.18707716 0.11035373
0003f0 5b 37 3d 3d 64 03 42 3d 32 e5 b9 bd 80 8a 89 3d
       0.04619537 0.047366515 -0.09076919 0.0671587

bias f4 [24]
000000 4a e1 80 bd 35 45 9d ba ca 99 e8 3c d3 e1 a4 bd
       -0.062929705 -0.0011998775 0.028393645 -0.08050885
000010 03 4c f4 bd 57 f8 18 bd f6 83 3d 3d f8 8c 8b bd
       -0.119285606 -0.03734621 0.046268426 -0.06813997
000020 03 60 aa bc 46 e4 0e bc d1 d8 ba ba ad ac a3 bd
       -0.020797735 -0.008721417 -0.001425529 -0.0799192
000030 6e 32 81 3c f0 28 2d 3d 7a fd d9 39 eb 0a c5 3d
       0.015771117 0.04227537 0.0004157832 0.09621223
000040 e1 98 82 3b e8 b7 51 3d 67 c6 20 3d 80 4a f2 bd
       0.0039855097 0.051200777 0.03925171 -0.11830616
000050 a6 64 90 bd 19 b9 72 bd 31 a1 2b bd de d2 e8 bd
       -0.07050447 -0.059258554 -0.04190177 -0.11368345

weight f4 [24]
000000 0a 42 17 3f c9 ca 2d 3f 89 c1 1c 3f 13 35 27 3f
       0.5908514 0.6788755 0.6123281 0.6531536
000010 14 04 0a 3f 49 67 20 3f e8 76 3b 3f 8b 59 1a 3f
       0.5391247 0.626576 0.7322831 0.6029288
000020 27 d3 0a 3f b3 8b 13 3f 45 a8 18 3f ae 4c 0a 3f
       0.5422844 0.5763504 0.5963176 0.54023254
000030 b3 57 2e 3f d3 f8 09 3f 23 58 2a 3f c6 dd 26 3f
       0.6810257 0.538953 0.66540736 0.6518215
000040 5e 02 16 3f d5 67 1c 3f 44 e4 0c 3f d1 b8 0b 3f
       0.5859736 0.61095935 0.55035806 0.5457888
000050 f2 17 12 3f aa 71 06 3f 3f bf 18 3f 3a a7 15 3f
       0.5706779 0.5251719 0.5966682 0.5845829

bias f4 [24]
000000 2d ee 8a be 06 fe a7 be d5 c7 84 be cd 94 83 be
       -0.2713484 -0.32810992 -0.2593371 -0.25699463
000010 27 4e ca be 8b eb 5c be 54 79 91 be 8b 93 90 be
       -0.3951275 -0.21574228 -0.2841288 -0.28237566
000020 7a 6b 90 be a2 03 b4 be 90 42 9d be ac ec bc be
       -0.28206998 -0.35159022 -0.30714846 -0.36899316
000030 40 9c 5a be 73 ed 46 be ff 5a a8 be 14 eb f5 bd
       -0.21348667 -0.19426517 -0.32881925 -0.12007728
000040 a3 54 8c be 5c 3b a6 be 41 08 93 be 71 8c aa be
       -0.27408323 -0.32467163 -0.28717235 -0.33310273
000050 66 71 a2 be 2c 40 b3 be 2a 18 9a be 29 ed 76 be
       -0.3172714 -0.35009897 -0.3009656 -0.24113907

running_mean f4 [24]
000000 21 26 2d c0 a0 b1 41 bf 83 ef 14 bf b0 5a 30 c0
       -2.7054522 -0.7566166 -0.58177966 -2.7555351
000010 a4 6c 5e c0 90 e7 5d c0 2c 57 44 3e 71 fc 4a c0
       -3.475381 -3.4672585 0.19173878 -3.1716578
000020 d4 52 2f c0 a0 72 9c bf 45 90 21 bf 54 fe 7c c0
       -2.7394304 -1.2222481 -0.6311076 -3.953023
000030 7e 75 5e bf c8 d3 88 bd 80 79 09 c0 ae 64 ce 3e
       -0.8689803 -0.06681019 -2.1480408 0.40311188
000040 9a 68 35 3e 71 b7 d3 bf 49 e6 a7 bf e3 cf 37 c0
       0.17715684 -1.6540357 -1.3117152 -2.8720634
000050 f3 62 5c c0 44 0d 2b c0 f9 98 7f bf fd fb 9d c0
       -3.4435394 -2.6726847 -0.9984279 -4.9370103

running_var f4 [24]
000000 8a 65 d5 40 59 b2 32 40 86 af 26 40 6c c0 94 40
       6.668645 2.7921355 2.604463 4.648489
000010 d5 67 88 40 c4 6f 8a 40 17 20 38 40 22 ac 62 40
       4.262675 4.3261433 2.8769586 3.5417562
000020 40 61 2d 40 0a 08 53 40 a2 d9 57 40 ee fb 7e 40
       2.7090607 3.2973657 3.3726583 3.9841266
000030 49 23 6d 40 08 7a 69 40 f5 2b 59 40 41 bc 87 40
       3.7052786 3.6480732 3.393308 4.24173
000040 63 f0 60 40 12 c9 2d 40 9f c5 34 40 a2 39 6e 40
       3.514672 2.7153974 2.8245618 3.7222676
000050 a6 95 62 40 80 30 81 40 d0 06 7b 40 ee 72 c1 40
       3.5403838 4.0371704 3.9222908 6.0452795

weight f4 [10, 2400]
000000 ec 08 ec 3d 38 59 5e 3d ae 3e 2d 3d f3 dc a6 3d
       0.11525139 0.054284304 0.042296104 0.081476115
000010 0f fc 59 3d 50 a7 a4 3d 47 70 a6 3d 83 89 bf 3c
       0.053218897 0.08039725 0.08126884 0.023381
000020 83 01 86 3d 9d b7 80 3d d0 3e 2b 3d d5 27 0b bd
       0.06543257 0.062850215 0.04180795 -0.033973534
000030 4a a7 2a 3d d3 5a 52 3d 75 9e a8 3d 02 29 ea 3c
       0.041663446 0.051356148 0.08233348 0.028584007
000040 d8 17 25 3d bc f3 5e bb 87 ea b5 3d e7 71 bc 3d
       0.040305942 -0.0034019789 0.08882623 0.09201413
000050 1f 00 65 3b 33 89 44 bd b6 ee 1e bc 42 d3 01 3d
       0.00349427 -0.047982406 -0.009700468 0.03169561
000060 59 49 1a 3d 4f fb ee 3c 99 3a 07 3d ec f7 e0 bc
       0.037667606 0.029172568 0.033014867 -0.027461968
000070 2b 2e a9 3d ab 40 f7 3c 59 2a da 3c 29 01 ad 3c
       0.08260759 0.030182203 0.026631521 0.021118717
000080 83 31 91 3d 26 c4 27 3d 07 24 1c 3d 7e 03 c9 3b
       0.07089522 0.040958546 0.038120296 0.0061344495
000090 98 79 a8 bc 4f f8 d0 3a be bd d9 3d f7 8c bd bc
       -0.020565793 0.0015943142 0.106318936 -0.023138506
0000a0 9f 75 bd 3c 8e 57 aa 3c db f7 ca 3c 38 cb 5c bb
       0.023127375 0.020793702 0.02477639 -0.0033690464
0000b0 f2 f5 c4 ba 4a 3c 1b bd de 0b 90 bc 3d a5 a9 bc
       -0.0015026911 -0.037899293 -0.017583784 -0.020708675
0000c0 d7 9b c4 3c 3e 98 c6 bd f7 72 3f bd 03 f1 f2 bd
       0.024000091 -0.09697007 -0.0467405 -0.118623756
0000d0 32 7f fa bd 4e ca 4a 3a 74 72 a6 3c dc 66 b9 3d
       -0.12231292 0.0007735834 0.020318247 0.09052822
0000e0 ea 9f 5a 3d 23 61 e8 bc 6c ef 90 bd 1b 28 16 be
       0.053375162 -0.02836663 -0.07076916 -0.14663737
0000f0 4b 78 ff bc 83 ec d0 bd 65 61 5d bd 28 70 8a 3d
       -0.03118529 -0.10201361 -0.05404796 0.06759673
000100 94 68 55 3d a6 c9 63 3d bd 48 64 3d 87 79 81 bc
       0.052101687 0.05561223 0.05573343 -0.015805019
000110 54 e1 e5 bd 04 87 1d be 1f cf b7 bc 5f b1 04 be
       -0.112246186 -0.15383536 -0.02243763 -0.12958287
000120 95 49 d1 bc 99 e5 38 bd 39 4f 14 3d 44 9f 10 bc
       -0.025547782 -0.045140836 0.036208365 -0.008827034
000130 08 c9 e0 bc 13 c3 9c bd 54 2e 07 be 7b 07 f6 bd
       -0.02743961 -0.07654395 -0.13201267 -0.120131455
000140 5c 2f ae bd 7b 2d b4 bc ea ae 6f bc 96 b2 fd bc
       -0.08505127 -0.021994343 -0.014629105 -0.030968945
000150 44 cf 96 3d 28 b3 5b 3c 06 c0 5d bd 89 8a 40 3c
       0.073637515 0.013409413 -0.054138206 0.011751779
000160 95 f9 a0 bd 23 55 0b 3c f0 26 22 bd 98 65 45 bd
       -0.07860104 0.008504185 -0.039587915 -0.04819259
000170 13 13 34 bd ac c1 47 3d bf a5 30 3d e8 95 9f 3c
       -0.043963503 0.048768684 0.043126818 0.01948066
000180 bc 8b c3 bc b4 83 12 3d 9c d0 23 bd 32 d2 7f bc
       -0.023870341 0.035770133 -0.039993867 -0.015614079
000190 20 a4 ab 3a 7f 1a 6c 3d 14 72 c4 bc 58 6d a4 bd
       0.0013095178 0.057642456 -0.023980178 -0.08028668
0001a0 3b dd ec bc b1 0e f0 bb 60 86 93 ba dc 9f 20 bd
       -0.028914085 -0.00732597 -0.0011255257 -0.039214954
0001b0 9a f1 f0 bd 76 1f 19 bb ea e3 16 3e d2 2b 5a 3d
       -0.11764832 -0.00233647 0.1473538 0.053264447
0001c0 72 85 84 3d fa 02 88 3d 21 a8 d8 3d 5d f4 d0 3a
       0.06470765 0.06641193 0.10578943 0.0015941967
0001d0 f4 bb 0c b9 5d f3 b4 bc 5f 2c 69 bd 7b a3 54 3d
       -0.00013421458 -0.0220887 -0.05692708 0.05191372
0001e0 3f 4e 4d 3d dc 31 36 3d 9c 0e 71 3d 5c de 99 3d
       0.05012345 0.044481143 0.058851823 0.07513115
0001f0 01 39 99 3d 6a 98 6a bd ec 43 6f 3d 6f 18 54 3d
       0.07481576 -0.05727426 0.058414385 0.051781114
000200 f3 29 c9 bd 12 80 88 bd de 81 b7 3b 30 81 40 3d
       -0.09822454 -0.066650525 0.005600198 0.046998203
000210 ff 1b 44 3d 9a 2e a3 3d 19 8c e7 bc 95 f3 6d bc
       0.04787826 0.07967873 -0.028265046 -0.0145234065
000220 de b5 8d 3d d4 e1 7f 3c 89 3c 18 bd 50 31 fa bd
       0.06919454 0.015617806 -0.037167106 -0.12216437
000230 e2 34 bb bc ed ad 2e bd e5 8e 3c 3d 4f 09 66 3d
       -0.022852365 -0.042646337 0.046034712 0.05616122
000240 b4 ab 08 bc ee 06 b3 bc 26 1f e6 bc 57 ea 9a bd
       -0.008341718 -0.02185389 -0.028091025 -0.07564228
000250 bc b3 9c bd 69 e2 28 be b5 79 dd bd 86 71 75 bd
       -0.07651469 -0.16492619 -0.108142294 -0.059922718
000260 77 db 87 3b fb 31 4e 3a 3e 59 e8 3c 41 64 5a ba
       0.0041460353 0.0007865724 0.028362866 -0.0008330979
000270 6e e8 5b bd 36 d1 2b bd 6b d2 9e bd 36 a7 a6 bd
       -0.05368846 -0.041947566 -0.07754978 -0.08137362
000280 01 ec 04 be f8 43 80 bd 89 75 45 ba ca 80 c1 bd
       -0.12980653 -0.06262964 -0.0007532468 -0.09448393
000290 9d af 4f 3c 6c 55 8c 3c f0 67 26 bd 05 56 4f bc
       0.012676147 0.017130576 -0.040626466 -0.012654786
0002a0 7a fc 13 ba b7 11 0d 3d 2e dc 8c bc dd 87 27 bd
       -0.0005645227 0.034440722 -0.017194834 -0.040901054
0002b0 e4 f0 77 bd 2f 57 b5 bc 49 88 f3 bc cc e5 b7 3b
       -0.060532466 -0.022136299 -0.029728072 0.0056121107
0002c0 e3 7e a1 bb d5 d1 25 bd f0 dd 34 3d c3 b5 ad 3d
       -0.004928456 -0.040483315 0.04415697 0.08481934
0002d0 c2 9d e7 bc fc 8d 5a bd 81 45 e6 bc 6e 3b 42 3d
       -0.028273467 -0.053358063 -0.028109314 0.047419958
0002e0 e7 d3 f0 bc fc 09 6a bd 49 a3 bb bb 57 5e 8b bd
       -0.029397918 -0.057138428 -0.005726252 -0.06805103
0002f0 86 9b 25 3d 49 8f e5 3d dc 1a d4 bd 47 d1 bd bd
       0.04043152 0.1120897 -0.103566855 -0.09268432
000300 05 ee a8 bb d8 f8 01 bc 19 7f 80 bd db 7a 95 bd
       -0.0051553273 -0.007932864 -0.06274242 -0.072988234
000310 80 a3 f3 bd d4 aa 37 be d3 9c 37 be c3 76 64 bd
       -0.118964195 -0.1793626 -0.17930917 -0.055777323
000320 54 3e d9 bd 90 4d d1 bc 55 6b bb 3d e4 b3 42 bd
       -0.10607591 -0.02554968 0.09151331 -0.04753484
000330 e5 39 87 bd 94 16 e9 bc dc 07 22 bd c7 c0 74 3b
       -0.066028394 -0.028453149 -0.039558277 0.003734635
000340 ab 32 6b 3c b8 b0 b8 3d 09 86 f3 bd 01 c1 06 bd
       0.014355342 0.090180814 -0.118907996 -0.032898907
000350 a3 1b 9e 3c 68 a8 c7 3d 08 53 6c 3d 4e 0a 2f 3c
       0.019300288 0.09748918 0.057696372 0.010683609
000360 d6 6f 59 3d dc 21 cb 3c 3a 8a 5a bc 59 14 ae bb
       0.05308517 0.024796419 -0.01333862 -0.005312484
000370 cb 57 77 3a 23 75 d7 bc d3 21 a7 bc 46 8d 4b bd
       0.00094353844 -0.026300972 -0.02040187 -0.049695276
000380 0d 79 29 bd d1 02 ea bc 02 14 39 bd 36 1e 71 bd
       -0.04137521 -0.028565796 -0.045185097 -0.058866702
000390 9e e2 15 be 46 b1 e2 bd f1 ac 96 3c 31 91 bc bd
       -0.14637229 -0.110689685 0.018393012 -0.092073806
0003a0 96 20 2a bd 6f 04 d3 bd 63 4e 3f bd 1b 40 b0 3c
       -0.041534983 -0.1030358 -0.046705615 0.021514943
0003b0 e1 9b ca bd c7 08 ab bd ee 41 38 bd 1f 5f d5 bd
       -0.09893013 -0.083512835 -0.04498475 -0.104185335
0003c0 92 95 80 bc 01 78 c8 bd c8 31 bc bd 3c e3 2e bd
       -0.01569632 -0.09788514 -0.091891825 -0.042697176
0003d0 a6 75 a1 bc cc 2b 52 bd e4 3d 9f bd c5 44 07 bd
       -0.01970942 -0.0513113 -0.077754766 -0.033024568
0003e0 b6 d3 2a bd 32 ba 84 bc 6c 82 22 bc 68 06 12 3c
       -0.04170581 -0.016202066 -0.00991879 0.00891266
0003f0 cf 08 50 3d 1d 84 5e 3d 0e 09 91 3b 19 08 40 be
       0.05078965 0.05432521 0.004426128 -0.18753089

bias f4 [10]
000000 3c b7 00 3d c7 1b 63 bd 19 43 c3 bb 9c 53 ae 3d
       0.031424746 -0.055446412 -0.0059589264 0.08512041
000010 79 9e 30 3d c9 62 8b bc 2a 1f c4 bd 19 35 fe bc
       0.04311988 -0.017014878 -0.095762566 -0.031031178
000020 1e da 2c 3d 27 97 ba bd
       0.0422002 -0.09110861
